_________________________________________________________________
Layer (type)                 Output Shape              Param #   
=================================================================
lstm_1 (LSTM)                (None, 100, 128)          125440    
_________________________________________________________________
dense_1 (Dense)              (None, 100, 64)           8256      
_________________________________________________________________
lstm_2 (LSTM)                (None, 128)               98816     
_________________________________________________________________
dense_2 (Dense)              (None, 64)                8256      
_________________________________________________________________
dropout_1 (Dropout)          (None, 64)                0         
_________________________________________________________________
dense_3 (Dense)              (None, 116)               7540      
=================================================================
Total params: 248,308
Trainable params: 248,308
Non-trainable params: 0
_________________________________________________________________
----------------- EPOCH ------------- 0 ---------------
------------ Generating text after Epoch: 0
----- diversity: 0.1
****************************************************
karar bir karar bir karan bir bir karar bir karar aşk bir kara bir bir karar
…
