_________________________________________________________________
Layer (type)                 Output Shape              Param #   
=================================================================
dense_1 (Dense)              (None, 100, 128)          14976     
_________________________________________________________________
lstm_1 (LSTM)                (None, 128)               131584    
_________________________________________________________________
dense_2 (Dense)              (None, 64)                8256      
_________________________________________________________________
dropout_1 (Dropout)          (None, 64)                0         
_________________________________________________________________
dense_3 (Dense)              (None, 116)               7540      
=================================================================
Total params: 162,356
Trainable params: 162,356
Non-trainable params: 0
_________________________________________________________________
----------------- EPOCH ------------- 0 ---------------
------------ Generating text after Epoch: 0
----- diversity: 0.1
****************************************************
şk bir karan bir senin bir kalar bir dirini bir kalar derini derini bir bir kalarım
…
