_________________________________________________________________
Layer (type)                 Output Shape              Param #   
=================================================================
lstm_1 (LSTM)                (None, 64)                35840     
_________________________________________________________________
dense_1 (Dense)              (None, 64)                4160      
_________________________________________________________________
dropout_1 (Dropout)          (None, 64)                0         
_________________________________________________________________
dense_2 (Dense)              (None, 64)                4160      
_________________________________________________________________
dropout_2 (Dropout)          (None, 64)                0         
_________________________________________________________________
dense_3 (Dense)              (None, 64)                4160      
_________________________________________________________________
dense_4 (Dense)              (None, 75)                4875      
=================================================================
Total params: 53,195
Trainable params: 53,195
Non-trainable params: 0
_________________________________________________________________
-------------- EPOCH --------- 0 --------------- loss: 2.018523
************ MODEL SAVED **********
----- diversity: 0.1
****************************************************
kalan bir bir bir bir bir gözyaşı bir bir bir bir bir bir bir bir bir bir bir bir bir bir bir bir bir bir bir bir bir gelir bir bir bir ben bir bir bir bir seni bir gözlerim 
…
