_________________________________________________________________
Layer (type)                 Output Shape              Param #   
=================================================================
lstm_1 (LSTM)                (None, 32)                13824     
_________________________________________________________________
dropout_1 (Dropout)          (None, 32)                0         
_________________________________________________________________
dense_1 (Dense)              (None, 32)                1056      
_________________________________________________________________
dropout_2 (Dropout)          (None, 32)                0         
_________________________________________________________________
dense_2 (Dense)              (None, 32)                1056      
_________________________________________________________________
dense_3 (Dense)              (None, 75)                2475      
=================================================================
Total params: 18,411
Trainable params: 18,411
Non-trainable params: 0
_________________________________________________________________
-------------- EPOCH --------- 0 --------------- loss: 2.236507
************ MODEL SAVED **********
----- diversity: 0.1
****************************************************
bir seni bir bir 
…
