_________________________________________________________________
Layer (type)                 Output Shape              Param #   
=================================================================
lstm_1 (LSTM)                (None, 100, 256)          381952    
_________________________________________________________________
dense_1 (Dense)              (None, 100, 512)          131584    
_________________________________________________________________
dropout_1 (Dropout)          (None, 100, 512)          0         
_________________________________________________________________
dense_2 (Dense)              (None, 100, 512)          262656    
_________________________________________________________________
lstm_2 (LSTM)                (None, 256)               787456    
_________________________________________________________________
dense_3 (Dense)              (None, 512)               131584    
_________________________________________________________________
dropout_2 (Dropout)          (None, 512)               0         
_________________________________________________________________
dense_4 (Dense)              (None, 128)               65664     
_________________________________________________________________
dense_5 (Dense)              (None, 116)               14964     
=================================================================
Total params: 1,775,860
Trainable params: 1,775,860
Non-trainable params: 0
_________________________________________________________________
----------------- EPOCH ------------- 0 ---------------
------------ Generating text after Epoch: 0
----- diversity: 0.1
****************************************************
in bir bir b
…
