_________________________________________________________________
Layer (type)                 Output Shape              Param #   
=================================================================
lstm_1 (LSTM)                (None, 100, 128)          125440    
_________________________________________________________________
dense_1 (Dense)              (None, 100, 128)          16512     
_________________________________________________________________
lstm_2 (LSTM)                (None, 128)               131584    
_________________________________________________________________
dense_2 (Dense)              (None, 128)               16512     
_________________________________________________________________
dropout_1 (Dropout)          (None, 128)               0         
_________________________________________________________________
dense_3 (Dense)              (None, 128)               16512     
_________________________________________________________________
dense_4 (Dense)              (None, 116)               14964     
=================================================================
Total params: 321,524
Trainable params: 321,524
Non-trainable params: 0
_________________________________________________________________
----------------- EPOCH ------------- 0 ---------------
------------ Generating text after Epoch: 0
----- diversity: 0.1
****************************************************
e bir bir gürün 
…
