_________________________________________________________________
Layer (type)                 Output Shape              Param #   
=================================================================
lstm_1 (LSTM)                (None, 30, 64)            35840     
_________________________________________________________________
dense_1 (Dense)              (None, 30, 64)            4160      
_________________________________________________________________
dropout_1 (Dropout)          (None, 30, 64)            0         
_________________________________________________________________
dense_2 (Dense)              (None, 30, 64)            4160      
_________________________________________________________________
dropout_2 (Dropout)          (None, 30, 64)            0         
_________________________________________________________________
dense_3 (Dense)              (None, 30, 64)            4160      
_________________________________________________________________
dropout_3 (Dropout)          (None, 30, 64)            0         
_________________________________________________________________
dense_4 (Dense)              (None, 30, 64)            4160      
_________________________________________________________________
dropout_4 (Dropout)          (None, 30, 64)            0         
_________________________________________________________________
dense_5 (Dense)              (None, 30, 64)            4160      
_________________________________________________________________
dropout_5 (Dropout)          (None, 30, 64)            0         
_________________________________________________________________
dense_6 (Dense)              (None, 30, 75)            4875      
=================================================================
Total params: 61,515
Trainable params: 61,515
Non-trainable params: 0
_________________________________________________________________
