_________________________________________________________________
Layer (type)                 Output Shape              Param #   
=================================================================
lstm_1 (LSTM)                (None, 40, 64)            33280     
_________________________________________________________________
dropout_1 (Dropout)          (None, 40, 64)            0         
_________________________________________________________________
dense_1 (Dense)              (None, 40, 64)            4160      
_________________________________________________________________
dropout_2 (Dropout)          (None, 40, 64)            0         
_________________________________________________________________
lstm_2 (LSTM)                (None, 64)                33024     
_________________________________________________________________
dropout_3 (Dropout)          (None, 64)                0         
_________________________________________________________________
dense_2 (Dense)              (None, 65)                4225      
=================================================================
Total params: 74,689
Trainable params: 74,689
Non-trainable params: 0
_________________________________________________________________
-------------- EPOCH --------- 0 --------------- loss: 2.373817
************ MODEL SAVED **********
----- diversity: 0.1
****************************************************
evgi bir bir bir 
…
