_________________________________________________________________
Layer (type)                 Output Shape              Param #   
=================================================================
lstm_1 (LSTM)                (None, 256)               381952    
_________________________________________________________________
dense_1 (Dense)              (None, 128)               32896     
_________________________________________________________________
dropout_1 (Dropout)          (None, 128)               0         
_________________________________________________________________
dense_2 (Dense)              (None, 128)               16512     
_________________________________________________________________
dense_3 (Dense)              (None, 116)               14964     
=================================================================
Total params: 446,324
Trainable params: 446,324
Non-trainable params: 0
_________________________________________________________________
----------------- EPOCH ------------- 0 ---------------
------------ Generating text after Epoch: 0
----- diversity: 0.1
****************************************************
n bir bir bir bi
…
